…
2  001cdf01b096e06d78e9e5112d419397          pekinese
3  00214f311d5d2247d5dfe4fe24b2303d          bluetick
4  0021f9ceb3235effd7fcde7f7538ed62  golden_retriever
scottish_deerhound      126
maltese_dog             117
afghan_hound            116
entlebucher             115
bernese_mountain_dog    114
Name: breed, dtype: int64
(120,)
(10222, 128, 128, 3)
(10222, 120)
(32708, 128, 128, 3)
(2045, 128, 128, 3)
_________________________________________________________________
Layer (type)                 Output Shape              Param #   
=================================================================
conv2d_1 (Conv2D)            (None, 128, 128, 32)      2432      
_________________________________________________________________
max_pooling2d_1 (MaxPooling2 (None, 64, 64, 32)        0         
_________________________________________________________________
conv2d_2 (Conv2D)            (None, 64, 64, 64)        32832     
_________________________________________________________________
max_pooling2d_2 (MaxPooling2 (None, 32, 32, 64)        0         
_________________________________________________________________
conv2d_3 (Conv2D)            (None, 32, 32, 128)       73856     
_________________________________________________________________
max_pooling2d_3 (MaxPooling2 (None, 16, 16, 128)       0         
_________________________________________________________________
dropout_1 (Dropout)          (None, 16, 16, 128)       0         
_________________________________________________________________
flatten_1 (Flatten)          (None, 32768)             0         
_________________________________________________________________
dense_1 (Dense)              (None, 500)               16384500  
_________________________________________________________________
dropout_2 (Dropout)          (None, 500)               0         
_________________________________________________________________
dense_2 (Dense)              (None, 120)               60120     
=================================================================
Total params: 16,553,740
Trainable params: 16,553,740
Non-trainable params: 0
_________________________________________________________________
Train on 32708 samples, validate on 2045 samples
Epoch 1/20
 - 54s - loss: 4.7223 - acc: 0.0156 - val_loss: 4.6109 - val_acc: 0.0210
Epoch 2/20
 - 48s - loss: 4.5082 - acc: 0.0300 - val_loss: 4.4198 - val_acc: 0.0396
…
