…
3  00214f311d5d2247d5dfe4fe24b2303d          bluetick
4  0021f9ceb3235effd7fcde7f7538ed62  golden_retriever
scottish_deerhound      126
maltese_dog             117
afghan_hound            116
entlebucher             115
bernese_mountain_dog    114
Name: breed, dtype: int64
(120,)
(10222, 128, 128)
(10222, 128, 128, 1)
(10222, 120)
(8177, 128, 128, 1)
(2045, 128, 128, 1)
_________________________________________________________________
Layer (type)                 Output Shape              Param #   
=================================================================
conv2d_1 (Conv2D)            (None, 128, 128, 64)      1088      
_________________________________________________________________
max_pooling2d_1 (MaxPooling2 (None, 64, 64, 64)        0         
_________________________________________________________________
conv2d_2 (Conv2D)            (None, 64, 64, 64)        65600     
_________________________________________________________________
max_pooling2d_2 (MaxPooling2 (None, 32, 32, 64)        0         
_________________________________________________________________
dropout_1 (Dropout)          (None, 32, 32, 64)        0         
_________________________________________________________________
flatten_1 (Flatten)          (None, 65536)             0         
_________________________________________________________________
dense_1 (Dense)              (None, 120)               7864440   
_________________________________________________________________
dense_2 (Dense)              (None, 120)               14520     
=================================================================
Total params: 7,945,648
Trainable params: 7,945,648
Non-trainable params: 0
_________________________________________________________________
Train on 8177 samples, validate on 2045 samples
Epoch 1/50
 - 28s - loss: 4.7885 - acc: 0.0110 - val_loss: 4.7825 - val_acc: 0.0147
Epoch 2/50
 - 15s - loss: 4.6900 - acc: 0.0205 - val_loss: 4.6365 - val_acc: 0.0205
…
